…
2026-05-17 16:55:46,369 - DictFold - INFO - config.total_bs : 4
2026-05-17 16:55:46,369 - DictFold - INFO - config.step_per_update : 1
2026-05-17 16:55:46,370 - DictFold - INFO - config.max_epoch : 400
2026-05-17 16:55:46,370 - DictFold - INFO - config.consider_metric : CDL1
2026-05-17 16:55:46,370 - DictFold - INFO - Distributed training: False
2026-05-17 16:55:46,370 - DictFold - INFO - Set random seed to 2023, deterministic: False
2026-05-17 16:55:46,370 - DictFold - INFO - Tester start ... 
2026-05-17 16:55:47,013 - DictFold - INFO - DictFold(
  (feat_extractor): UNet(
    (sa_module_1): PointNet_SA_Module_KNN(
      (mlp_conv): Sequential(
        (0): Conv2d(
          (conv): Conv2d(6, 32, kernel_size=(1, 1), stride=(1, 1))
          (bn): BatchNorm2d(32, eps=1e-05, momentum=0.1, affine=True, track_running_stats=True)
        )
        (1): Conv2d(
          (conv): Conv2d(32, 128, kernel_size=(1, 1), stride=(1, 1))
          (bn): BatchNorm2d(128, eps=1e-05, momentum=0.1, affine=True, track_running_stats=True)
        )
      )
    )
    (transformer_1): Transformer(
      (conv_key): Conv1d(64, 64, kernel_size=(1,), stride=(1,))
      (conv_query): Conv1d(64, 64, kernel_size=(1,), stride=(1,))
      (conv_value): Conv1d(64, 64, kernel_size=(1,), stride=(1,))
      (pos_mlp): Sequential(
        (0): Conv2d(3, 64, kernel_size=(1, 1), stride=(1, 1))
        (1): BatchNorm2d(64, eps=1e-05, momentum=0.1, affine=True, track_running_stats=True)
        (2): ReLU()
        (3): Conv2d(64, 64, kernel_size=(1, 1), stride=(1, 1))
      )
      (attn_mlp): Sequential(
        (0): Conv2d(64, 256, kernel_size=(1, 1), stride=(1, 1))
        (1): BatchNorm2d(256, eps=1e-05, momentum=0.1, affine=True, track_running_stats=True)
        (2): ReLU()
        (3): Conv2d(256, 64, kernel_size=(1, 1), stride=(1, 1))
      )
      (linear_start): Conv1d(128, 64, kernel_size=(1,), stride=(1,))
      (linear_end): Conv1d(64, 128, kernel_size=(1,), stride=(1,))
    )
    (sa_module_2): PointNet_SA_Module_KNN(
      (mlp_conv): Sequential(
        (0): Conv2d(
          (conv): Conv2d(131, 128, kernel_size=(1, 1), stride=(1, 1))
          (bn): BatchNorm2d(128, eps=1e-05, momentum=0.1, affine=True, track_running_stats=True)
        )
        (1): Conv2d(
          (conv): Conv2d(128, 256, kernel_size=(1, 1), stride=(1, 1))
          (bn): BatchNorm2d(256, eps=1e-05, momentum=0.1, affine=True, track_running_stats=True)
        )
      )
    )
    (transformer_2): Transformer(
      (conv_key): Conv1d(64, 64, kernel_size=(1,), stride=(1,))
      (conv_query): Conv1d(64, 64, kernel_size=(1,), stride=(1,))
      (conv_value): Conv1d(64, 64, kernel_size=(1,), stride=(1,))
      (pos_mlp): Sequential(
        (0): Conv2d(3, 64, kernel_size=(1, 1), stride=(1, 1))
        (1): BatchNorm2d(64, eps=1e-05, momentum=0.1, affine=True, track_running_stats=True)
        (2): ReLU()
        (3): Conv2d(64, 64, kernel_size=(1, 1), stride=(1, 1))
      )
      (attn_mlp): Sequential(
        (0): Conv2d(64, 256, kernel_size=(1, 1), stride=(1, 1))
        (1): BatchNorm2d(256, eps=1e-05, momentum=0.1, affine=True, track_running_stats=True)
        (2): ReLU()
        (3): Conv2d(256, 64, kernel_size=(1, 1), stride=(1, 1))
      )
      (linear_start): Conv1d(256, 64, kernel_size=(1,), stride=(1,))
      (linear_end): Conv1d(64, 256, kernel_size=(1,), stride=(1,))
    )
    (sa_module_4): PointNet_SA_Module_KNN(
      (mlp_conv): Sequential(
        (0): Conv2d(
          (conv): Conv2d(259, 384, kernel_size=(1, 1), stride=(1, 1))
          (bn): BatchNorm2d(384, eps=1e-05, momentum=0.1, affine=True, track_running_stats=True)
        )
        (1): Conv2d(
          (conv): Conv2d(384, 512, kernel_size=(1, 1), stride=(1, 1))
          (bn): BatchNorm2d(512, eps=1e-05, momentum=0.1, affine=True, track_running_stats=True)
        )
      )
    )
    (ps_0): ConvTranspose1d(512, 256, kernel_size=(64,), stride=(1,))
    (ps_1): ConvTranspose1d(256, 256, kernel_size=(2,), stride=(2,))
    (ps_2): ConvTranspose1d(256, 128, kernel_size=(2,), stride=(2,))
    (mlp_1): MLP_Res(
      (conv_1): Conv1d(768, 256, kernel_size=(1,), stride=(1,))
      (conv_2): Conv1d(256, 256, kernel_size=(1,), stride=(1,))
      (conv_shortcut): Conv1d(768, 256, kernel_size=(1,), stride=(1,))
    )
    (refine_1): FeaRefine(
      (dict_embed): Embedding(256, 128)
      (query): Conv1d(256, 64, kernel_size=(1,), stride=(1,))
      (key): Conv1d(256, 64, kernel_size=(1,), stride=(1,))
    )
    (refine_2): FeaRefine(
      (dict_embed): Embedding(128, 64)
      (query): Conv1d(128, 64, kernel_size=(1,), stride=(1,))
      (key): Conv1d(128, 64, kernel_size=(1,), stride=(1,))
    )
    (mlp_3): MLP_Res(
      (conv_1): Conv1d(128, 32, kernel_size=(1,), stride=(1,))
      (conv_2): Conv1d(32, 3, kernel_size=(1,), stride=(1,))
      (conv_shortcut): Conv1d(128, 3, kernel_size=(1,), stride=(1,))
    )
  )
  (decoder): FoldingNet(
    (folding1): Sequential(
      (0): Conv2d(130, 512, kernel_size=(1, 1), stride=(1, 1))
      (1): BatchNorm2d(512, eps=1e-05, momentum=0.1, affine=True, track_running_stats=True)
      (2): ReLU(inplace=True)
      (3): Conv2d(512, 512, kernel_size=(1, 1), stride=(1, 1))
      (4): BatchNorm2d(512, eps=1e-05, momentum=0.1, affine=True, track_running_stats=True)
      (5): ReLU(inplace=True)
      (6): Conv2d(512, 3, kernel_size=(1, 1), stride=(1, 1))
    )
    (folding2): Sequential(
      (0): Conv2d(131, 512, kernel_size=(1, 1), stride=(1, 1))
      (1): BatchNorm2d(512, eps=1e-05, momentum=0.1, affine=True, track_running_stats=True)
      (2): ReLU(inplace=True)
      (3): Conv2d(512, 512, kernel_size=(1, 1), stride=(1, 1))
      (4): BatchNorm2d(512, eps=1e-05, momentum=0.1, affine=True, track_running_stats=True)
      (5): ReLU(inplace=True)
      (6): Conv2d(512, 3, kernel_size=(1, 1), stride=(1, 1))
    )
  )
  (loss_func): ChamferDistanceL1()
  (loss_split): ChamferDistanceL1_split()
)
2026-05-17 16:55:47,014 - DictFold - INFO - Loading weights from ./experiments/DictFold/ours_models/realpc_full_odgnet/ckpt-best.pth...
2026-05-17 16:55:47,051 - DictFold - INFO - ckpts @ 400 epoch( performance = {'F-Score': 0.8274432350400829, 'CDL1': 27.134594551588943, 'CDL2': 31.01433594985035})
…
