…
2026-05-17 16:55:09,350 - AnchorFormer - INFO - config.step_per_update : 1
2026-05-17 16:55:09,350 - AnchorFormer - INFO - config.max_epoch : 420
2026-05-17 16:55:09,350 - AnchorFormer - INFO - config.consider_metric : CDL1
2026-05-17 16:55:09,350 - AnchorFormer - INFO - Distributed training: False
2026-05-17 16:55:09,350 - AnchorFormer - INFO - Set random seed to 0, deterministic: False
2026-05-17 16:55:09,351 - AnchorFormer - INFO - Tester start ... 
2026-05-17 16:55:09,769 - AnchorFormer - INFO - AnchorFormer(
  (base_model): AnchorTransformer(
    (grouper): DGCNN_Grouper(
      (input_trans): Conv1d(3, 8, kernel_size=(1,), stride=(1,))
      (layer1): Sequential(
        (0): Conv2d(16, 32, kernel_size=(1, 1), stride=(1, 1), bias=False)
        (1): GroupNorm(4, 32, eps=1e-05, affine=True)
        (2): LeakyReLU(negative_slope=0.2)
      )
      (layer2): Sequential(
        (0): Conv2d(64, 64, kernel_size=(1, 1), stride=(1, 1), bias=False)
        (1): GroupNorm(4, 64, eps=1e-05, affine=True)
        (2): LeakyReLU(negative_slope=0.2)
      )
      (layer3): Sequential(
        (0): Conv2d(128, 64, kernel_size=(1, 1), stride=(1, 1), bias=False)
        (1): GroupNorm(4, 64, eps=1e-05, affine=True)
        (2): LeakyReLU(negative_slope=0.2)
      )
      (layer4): Sequential(
        (0): Conv2d(128, 128, kernel_size=(1, 1), stride=(1, 1), bias=False)
        (1): GroupNorm(4, 128, eps=1e-05, affine=True)
        (2): LeakyReLU(negative_slope=0.2)
      )
    )
    (pos_embed): Sequential(
      (0): Conv1d(3, 128, kernel_size=(1,), stride=(1,))
      (1): BatchNorm1d(128, eps=1e-05, momentum=0.1, affine=True, track_running_stats=True)
      (2): LeakyReLU(negative_slope=0.2)
      (3): Conv1d(128, 384, kernel_size=(1,), stride=(1,))
    )
    (input_proj): Sequential(
      (0): Conv1d(128, 384, kernel_size=(1,), stride=(1,))
      (1): BatchNorm1d(384, eps=1e-05, momentum=0.1, affine=True, track_running_stats=True)
      (2): LeakyReLU(negative_slope=0.2)
      (3): Conv1d(384, 384, kernel_size=(1,), stride=(1,))
    )
    (encoder): ModuleList(
      (0): EncoderBlock(
        (norm1): LayerNorm((384,), eps=1e-05, elementwise_affine=True)
        (self_attn): Attention(
          (qkv): Linear(in_features=384, out_features=1152, bias=False)
          (attn_drop): Dropout(p=0.0, inplace=False)
          (proj): Linear(in_features=384, out_features=384, bias=True)
          (proj_drop): Dropout(p=0.0, inplace=False)
        )
        (drop_path): Identity()
        (norm2): LayerNorm((384,), eps=1e-05, elementwise_affine=True)
        (norm_q): Identity()
        (norm_k): Identity()
        (attn): GeoCrossAttention(
          (q_map): Identity()
          (k_map): Identity()
          (attn_drop): Dropout(p=0.0, inplace=False)
          (x_map): Identity()
        )
        (mlp): Mlp(
          (fc1): Linear(in_features=384, out_features=768, bias=True)
          (act): GELU(approximate='none')
          (fc2): Linear(in_features=768, out_features=384, bias=True)
          (drop): Dropout(p=0.0, inplace=False)
        )
        (generate_anchor): SubFold(
          (folding1): Sequential(
            (0): Conv1d(387, 192, kernel_size=(1,), stride=(1,))
            (1): BatchNorm1d(192, eps=1e-05, momentum=0.1, affine=True, track_running_stats=True)
            (2): ReLU(inplace=True)
            (3): Conv1d(192, 96, kernel_size=(1,), stride=(1,))
            (4): BatchNorm1d(96, eps=1e-05, momentum=0.1, affine=True, track_running_stats=True)
            (5): ReLU(inplace=True)
            (6): Conv1d(96, 3, kernel_size=(1,), stride=(1,))
          )
          (folding2): Sequential(
            (0): Conv1d(387, 192, kernel_size=(1,), stride=(1,))
            (1): BatchNorm1d(192, eps=1e-05, momentum=0.1, affine=True, track_running_stats=True)
            (2): ReLU(inplace=True)
            (3): Conv1d(192, 96, kernel_size=(1,), stride=(1,))
            (4): BatchNorm1d(96, eps=1e-05, momentum=0.1, affine=True, track_running_stats=True)
            (5): ReLU(inplace=True)
            (6): Conv1d(96, 3, kernel_size=(1,), stride=(1,))
          )
        )
        (generate_feature): Sequential(
          (0): Conv1d(128, 256, kernel_size=(1,), stride=(1,))
          (1): LeakyReLU(negative_slope=0.2)
          (2): Conv1d(256, 64, kernel_size=(1,), stride=(1,))
          (3): LeakyReLU(negative_slope=0.2)
          (4): Conv1d(64, 16, kernel_size=(1,), stride=(1,))
        )
      )
      (1): EncoderBlock(
        (norm1): LayerNorm((384,), eps=1e-05, elementwise_affine=True)
        (self_attn): Attention(
          (qkv): Linear(in_features=384, out_features=1152, bias=False)
          (attn_drop): Dropout(p=0.0, inplace=False)
          (proj): Linear(in_features=384, out_features=384, bias=True)
          (proj_drop): Dropout(p=0.0, inplace=False)
        )
        (drop_path): Identity()
        (norm2): LayerNorm((384,), eps=1e-05, elementwise_affine=True)
        (norm_q): Identity()
        (norm_k): Identity()
        (attn): GeoCrossAttention(
          (q_map): Identity()
          (k_map): Identity()
          (attn_drop): Dropout(p=0.0, inplace=False)
          (x_map): Identity()
        )
        (mlp): Mlp(
          (fc1): Linear(in_features=384, out_features=768, bias=True)
          (act): GELU(approximate='none')
          (fc2): Linear(in_features=768, out_features=384, bias=True)
          (drop): Dropout(p=0.0, inplace=False)
        )
        (generate_anchor): SubFold(
          (folding1): Sequential(
            (0): Conv1d(387, 192, kernel_size=(1,), stride=(1,))
            (1): BatchNorm1d(192, eps=1e-05, momentum=0.1, affine=True, track_running_stats=True)
            (2): ReLU(inplace=True)
            (3): Conv1d(192, 96, kernel_size=(1,), stride=(1,))
            (4): BatchNorm1d(96, eps=1e-05, momentum=0.1, affine=True, track_running_stats=True)
            (5): ReLU(inplace=True)
            (6): Conv1d(96, 3, kernel_size=(1,), stride=(1,))
          )
          (folding2): Sequential(
            (0): Conv1d(387, 192, kernel_size=(1,), stride=(1,))
            (1): BatchNorm1d(192, eps=1e-05, momentum=0.1, affine=True, track_running_stats=True)
            (2): ReLU(inplace=True)
            (3): Conv1d(192, 96, kernel_size=(1,), stride=(1,))
            (4): BatchNorm1d(96, eps=1e-05, momentum=0.1, affine=True, track_running_stats=True)
            (5): ReLU(inplace=True)
            (6): Conv1d(96, 3, kernel_size=(1,), stride=(1,))
          )
        )
        (generate_feature): Sequential(
          (0): Conv1d(144, 256, kernel_size=(1,), stride=(1,))
          (1): LeakyReLU(negative_slope=0.2)
          (2): Conv1d(256, 64, kernel_size=(1,), stride=(1,))
          (3): LeakyReLU(negative_slope=0.2)
          (4): Conv1d(64, 16, kernel_size=(1,), stride=(1,))
        )
      )
      (2): EncoderBlock(
        (norm1): LayerNorm((384,), eps=1e-05, elementwise_affine=True)
        (self_attn): Attention(
          (qkv): Linear(in_features=384, out_features=1152, bias=False)
          (attn_drop): Dropout(p=0.0, inplace=False)
          (proj): Linear(in_features=384, out_features=384, bias=True)
          (proj_drop): Dropout(p=0.0, inplace=False)
        )
        (drop_path): Identity()
        (norm2): LayerNorm((384,), eps=1e-05, elementwise_affine=True)
        (norm_q): Identity()
        (norm_k): Identity()
        (attn): GeoCrossAttention(
          (q_map): Identity()
          (k_map): Identity()
          (attn_drop): Dropout(p=0.0, inplace=False)
          (x_map): Identity()
        )
        (mlp): Mlp(
          (fc1): Linear(in_features=384, out_features=768, bias=True)
          (act): GELU(approximate='none')
          (fc2): Linear(in_features=768, out_features=384, bias=True)
          (drop): Dropout(p=0.0, inplace=False)
        )
        (generate_anchor): SubFold(
          (folding1): Sequential(
            (0): Conv1d(387, 192, kernel_size=(1,), stride=(1,))
            (1): BatchNorm1d(192, eps=1e-05, momentum=0.1, affine=True, track_running_stats=True)
            (2): ReLU(inplace=True)
            (3): Conv1d(192, 96, kernel_size=(1,), stride=(1,))
            (4): BatchNorm1d(96, eps=1e-05, momentum=0.1, affine=True, track_running_stats=True)
            (5): ReLU(inplace=True)
            (6): Conv1d(96, 3, kernel_size=(1,), stride=(1,))
          )
          (folding2): Sequential(
            (0): Conv1d(387, 192, kernel_size=(1,), stride=(1,))
            (1): BatchNorm1d(192, eps=1e-05, momentum=0.1, affine=True, track_running_stats=True)
            (2): ReLU(inplace=True)
            (3): Conv1d(192, 96, kernel_size=(1,), stride=(1,))
            (4): BatchNorm1d(96, eps=1e-05, momentum=0.1, affine=True, track_running_stats=True)
            (5): ReLU(inplace=True)
            (6): Conv1d(96, 3, kernel_size=(1,), stride=(1,))
          )
        )
        (generate_feature): Sequential(
          (0): Conv1d(160, 256, kernel_size=(1,), stride=(1,))
          (1): LeakyReLU(negative_slope=0.2)
          (2): Conv1d(256, 64, kernel_size=(1,), stride=(1,))
          (3): LeakyReLU(negative_slope=0.2)
          (4): Conv1d(64, 16, kernel_size=(1,), stride=(1,))
        )
      )
      (3): EncoderBlock(
        (norm1): LayerNorm((384,), eps=1e-05, elementwise_affine=True)
        (self_attn): Attention(
          (qkv): Linear(in_features=384, out_features=1152, bias=False)
          (attn_drop): Dropout(p=0.0, inplace=False)
          (proj): Linear(in_features=384, out_features=384, bias=True)
          (proj_drop): Dropout(p=0.0, inplace=False)
        )
        (drop_path): Identity()
        (norm2): LayerNorm((384,), eps=1e-05, elementwise_affine=True)
        (norm_q): Identity()
        (norm_k): Identity()
        (attn): GeoCrossAttention(
          (q_map): Identity()
          (k_map): Identity()
          (attn_drop): Dropout(p=0.0, inplace=False)
          (x_map): Identity()
        )
        (mlp): Mlp(
          (fc1): Linear(in_features=384, out_features=768, bias=True)
          (act): GELU(approximate='none')
          (fc2): Linear(in_features=768, out_features=384, bias=True)
          (drop): Dropout(p=0.0, inplace=False)
        )
        (generate_anchor): SubFold(
          (folding1): Sequential(
            (0): Conv1d(387, 192, kernel_size=(1,), stride=(1,))
            (1): BatchNorm1d(192, eps=1e-05, momentum=0.1, affine=True, track_running_stats=True)
            (2): ReLU(inplace=True)
            (3): Conv1d(192, 96, kernel_size=(1,), stride=(1,))
            (4): BatchNorm1d(96, eps=1e-05, momentum=0.1, affine=True, track_running_stats=True)
            (5): ReLU(inplace=True)
            (6): Conv1d(96, 3, kernel_size=(1,), stride=(1,))
          )
          (folding2): Sequential(
            (0): Conv1d(387, 192, kernel_size=(1,), stride=(1,))
            (1): BatchNorm1d(192, eps=1e-05, momentum=0.1, affine=True, track_running_stats=True)
            (2): ReLU(inplace=True)
            (3): Conv1d(192, 96, kernel_size=(1,), stride=(1,))
            (4): BatchNorm1d(96, eps=1e-05, momentum=0.1, affine=True, track_running_stats=True)
            (5): ReLU(inplace=True)
            (6): Conv1d(96, 3, kernel_size=(1,), stride=(1,))
          )
        )
        (generate_feature): Sequential(
          (0): Conv1d(176, 256, kernel_size=(1,), stride=(1,))
          (1): LeakyReLU(negative_slope=0.2)
          (2): Conv1d(256, 64, kernel_size=(1,), stride=(1,))
          (3): LeakyReLU(negative_slope=0.2)
          (4): Conv1d(64, 16, kernel_size=(1,), stride=(1,))
        )
      )
      (4): EncoderBlock(
        (norm1): LayerNorm((384,), eps=1e-05, elementwise_affine=True)
        (self_attn): Attention(
          (qkv): Linear(in_features=384, out_features=1152, bias=False)
          (attn_drop): Dropout(p=0.0, inplace=False)
          (proj): Linear(in_features=384, out_features=384, bias=True)
          (proj_drop): Dropout(p=0.0, inplace=False)
        )
        (drop_path): Identity()
        (norm2): LayerNorm((384,), eps=1e-05, elementwise_affine=True)
        (norm_q): Identity()
        (norm_k): Identity()
        (attn): GeoCrossAttention(
          (q_map): Identity()
          (k_map): Identity()
          (attn_drop): Dropout(p=0.0, inplace=False)
          (x_map): Identity()
        )
        (mlp): Mlp(
          (fc1): Linear(in_features=384, out_features=768, bias=True)
          (act): GELU(approximate='none')
          (fc2): Linear(in_features=768, out_features=384, bias=True)
          (drop): Dropout(p=0.0, inplace=False)
        )
        (generate_anchor): SubFold(
          (folding1): Sequential(
            (0): Conv1d(387, 192, kernel_size=(1,), stride=(1,))
            (1): BatchNorm1d(192, eps=1e-05, momentum=0.1, affine=True, track_running_stats=True)
            (2): ReLU(inplace=True)
            (3): Conv1d(192, 96, kernel_size=(1,), stride=(1,))
            (4): BatchNorm1d(96, eps=1e-05, momentum=0.1, affine=True, track_running_stats=True)
            (5): ReLU(inplace=True)
            (6): Conv1d(96, 3, kernel_size=(1,), stride=(1,))
          )
          (folding2): Sequential(
            (0): Conv1d(387, 192, kernel_size=(1,), stride=(1,))
            (1): BatchNorm1d(192, eps=1e-05, momentum=0.1, affine=True, track_running_stats=True)
            (2): ReLU(inplace=True)
            (3): Conv1d(192, 96, kernel_size=(1,), stride=(1,))
            (4): BatchNorm1d(96, eps=1e-05, momentum=0.1, affine=True, track_running_stats=True)
            (5): ReLU(inplace=True)
            (6): Conv1d(96, 3, kernel_size=(1,), stride=(1,))
          )
        )
        (generate_feature): Sequential(
          (0): Conv1d(192, 256, kernel_size=(1,), stride=(1,))
          (1): LeakyReLU(negative_slope=0.2)
          (2): Conv1d(256, 64, kernel_size=(1,), stride=(1,))
          (3): LeakyReLU(negative_slope=0.2)
          (4): Conv1d(64, 16, kernel_size=(1,), stride=(1,))
        )
      )
      (5): EncoderBlock(
        (norm1): LayerNorm((384,), eps=1e-05, elementwise_affine=True)
        (self_attn): Attention(
          (qkv): Linear(in_features=384, out_features=1152, bias=False)
          (attn_drop): Dropout(p=0.0, inplace=False)
          (proj): Linear(in_features=384, out_features=384, bias=True)
          (proj_drop): Dropout(p=0.0, inplace=False)
        )
        (drop_path): Identity()
        (norm2): LayerNorm((384,), eps=1e-05, elementwise_affine=True)
        (norm_q): Identity()
        (norm_k): Identity()
        (attn): GeoCrossAttention(
          (q_map): Identity()
          (k_map): Identity()
          (attn_drop): Dropout(p=0.0, inplace=False)
          (x_map): Identity()
        )
        (mlp): Mlp(
          (fc1): Linear(in_features=384, out_features=768, bias=True)
          (act): GELU(approximate='none')
          (fc2): Linear(in_features=768, out_features=384, bias=True)
          (drop): Dropout(p=0.0, inplace=False)
        )
        (generate_anchor): SubFold(
          (folding1): Sequential(
            (0): Conv1d(387, 192, kernel_size=(1,), stride=(1,))
            (1): BatchNorm1d(192, eps=1e-05, momentum=0.1, affine=True, track_running_stats=True)
            (2): ReLU(inplace=True)
            (3): Conv1d(192, 96, kernel_size=(1,), stride=(1,))
            (4): BatchNorm1d(96, eps=1e-05, momentum=0.1, affine=True, track_running_stats=True)
            (5): ReLU(inplace=True)
            (6): Conv1d(96, 3, kernel_size=(1,), stride=(1,))
          )
          (folding2): Sequential(
            (0): Conv1d(387, 192, kernel_size=(1,), stride=(1,))
            (1): BatchNorm1d(192, eps=1e-05, momentum=0.1, affine=True, track_running_stats=True)
            (2): ReLU(inplace=True)
            (3): Conv1d(192, 96, kernel_size=(1,), stride=(1,))
            (4): BatchNorm1d(96, eps=1e-05, momentum=0.1, affine=True, track_running_stats=True)
            (5): ReLU(inplace=True)
            (6): Conv1d(96, 3, kernel_size=(1,), stride=(1,))
          )
        )
        (generate_feature): Sequential(
          (0): Conv1d(208, 256, kernel_size=(1,), stride=(1,))
          (1): LeakyReLU(negative_slope=0.2)
          (2): Conv1d(256, 64, kernel_size=(1,), stride=(1,))
          (3): LeakyReLU(negative_slope=0.2)
          (4): Conv1d(64, 16, kernel_size=(1,), stride=(1,))
        )
      )
      (6): EncoderBlock(
        (norm1): LayerNorm((384,), eps=1e-05, elementwise_affine=True)
        (self_attn): Attention(
          (qkv): Linear(in_features=384, out_features=1152, bias=False)
          (attn_drop): Dropout(p=0.0, inplace=False)
          (proj): Linear(in_features=384, out_features=384, bias=True)
          (proj_drop): Dropout(p=0.0, inplace=False)
        )
        (drop_path): Identity()
        (norm2): LayerNorm((384,), eps=1e-05, elementwise_affine=True)
        (norm_q): Identity()
        (norm_k): Identity()
        (attn): GeoCrossAttention(
          (q_map): Identity()
          (k_map): Identity()
          (attn_drop): Dropout(p=0.0, inplace=False)
          (x_map): Identity()
        )
        (mlp): Mlp(
          (fc1): Linear(in_features=384, out_features=768, bias=True)
          (act): GELU(approximate='none')
          (fc2): Linear(in_features=768, out_features=384, bias=True)
          (drop): Dropout(p=0.0, inplace=False)
        )
        (generate_anchor): SubFold(
          (folding1): Sequential(
            (0): Conv1d(387, 192, kernel_size=(1,), stride=(1,))
            (1): BatchNorm1d(192, eps=1e-05, momentum=0.1, affine=True, track_running_stats=True)
            (2): ReLU(inplace=True)
            (3): Conv1d(192, 96, kernel_size=(1,), stride=(1,))
            (4): BatchNorm1d(96, eps=1e-05, momentum=0.1, affine=True, track_running_stats=True)
            (5): ReLU(inplace=True)
            (6): Conv1d(96, 3, kernel_size=(1,), stride=(1,))
          )
          (folding2): Sequential(
            (0): Conv1d(387, 192, kernel_size=(1,), stride=(1,))
            (1): BatchNorm1d(192, eps=1e-05, momentum=0.1, affine=True, track_running_stats=True)
            (2): ReLU(inplace=True)
            (3): Conv1d(192, 96, kernel_size=(1,), stride=(1,))
            (4): BatchNorm1d(96, eps=1e-05, momentum=0.1, affine=True, track_running_stats=True)
            (5): ReLU(inplace=True)
            (6): Conv1d(96, 3, kernel_size=(1,), stride=(1,))
          )
        )
        (generate_feature): Sequential(
          (0): Conv1d(224, 256, kernel_size=(1,), stride=(1,))
          (1): LeakyReLU(negative_slope=0.2)
          (2): Conv1d(256, 64, kernel_size=(1,), stride=(1,))
          (3): LeakyReLU(negative_slope=0.2)
          (4): Conv1d(64, 16, kernel_size=(1,), stride=(1,))
        )
      )
      (7): EncoderBlock(
        (norm1): LayerNorm((384,), eps=1e-05, elementwise_affine=True)
        (self_attn): Attention(
          (qkv): Linear(in_features=384, out_features=1152, bias=False)
          (attn_drop): Dropout(p=0.0, inplace=False)
          (proj): Linear(in_features=384, out_features=384, bias=True)
          (proj_drop): Dropout(p=0.0, inplace=False)
        )
        (drop_path): Identity()
        (norm2): LayerNorm((384,), eps=1e-05, elementwise_affine=True)
        (norm_q): Identity()
        (norm_k): Identity()
        (attn): GeoCrossAttention(
          (q_map): Identity()
          (k_map): Identity()
          (attn_drop): Dropout(p=0.0, inplace=False)
          (x_map): Identity()
        )
        (mlp): Mlp(
          (fc1): Linear(in_features=384, out_features=768, bias=True)
          (act): GELU(approximate='none')
          (fc2): Linear(in_features=768, out_features=384, bias=True)
          (drop): Dropout(p=0.0, inplace=False)
        )
        (generate_anchor): SubFold(
          (folding1): Sequential(
            (0): Conv1d(387, 192, kernel_size=(1,), stride=(1,))
            (1): BatchNorm1d(192, eps=1e-05, momentum=0.1, affine=True, track_running_stats=True)
            (2): ReLU(inplace=True)
            (3): Conv1d(192, 96, kernel_size=(1,), stride=(1,))
            (4): BatchNorm1d(96, eps=1e-05, momentum=0.1, affine=True, track_running_stats=True)
            (5): ReLU(inplace=True)
            (6): Conv1d(96, 3, kernel_size=(1,), stride=(1,))
          )
          (folding2): Sequential(
            (0): Conv1d(387, 192, kernel_size=(1,), stride=(1,))
            (1): BatchNorm1d(192, eps=1e-05, momentum=0.1, affine=True, track_running_stats=True)
            (2): ReLU(inplace=True)
            (3): Conv1d(192, 96, kernel_size=(1,), stride=(1,))
            (4): BatchNorm1d(96, eps=1e-05, momentum=0.1, affine=True, track_running_stats=True)
            (5): ReLU(inplace=True)
            (6): Conv1d(96, 3, kernel_size=(1,), stride=(1,))
          )
        )
        (generate_feature): Sequential(
          (0): Conv1d(240, 256, kernel_size=(1,), stride=(1,))
          (1): LeakyReLU(negative_slope=0.2)
          (2): Conv1d(256, 64, kernel_size=(1,), stride=(1,))
          (3): LeakyReLU(negative_slope=0.2)
          (4): Conv1d(64, 16, kernel_size=(1,), stride=(1,))
        )
      )
    )
    (increase_dim): Sequential(
      (0): Conv1d(384, 1024, kernel_size=(1,), stride=(1,))
      (1): BatchNorm1d(1024, eps=1e-05, momentum=0.1, affine=True, track_running_stats=True)
      (2): LeakyReLU(negative_slope=0.2)
      (3): Conv1d(1024, 1024, kernel_size=(1,), stride=(1,))
    )
    (coarse_pred): Sequential(
      (0): Linear(in_features=1024, out_features=1024, bias=True)
      (1): ReLU(inplace=True)
      (2): Linear(in_features=1024, out_features=384, bias=True)
    )
    (mlp_query): Sequential(
      (0): Conv1d(1027, 1024, kernel_size=(1,), stride=(1,))
      (1): LeakyReLU(negative_slope=0.2)
      (2): Conv1d(1024, 1024, kernel_size=(1,), stride=(1,))
      (3): LeakyReLU(negative_slope=0.2)
      (4): Conv1d(1024, 384, kernel_size=(1,), stride=(1,))
    )
    (decoder): ModuleList(
      (0-5): 6 x DecoderBlock(
        (norm1): LayerNorm((384,), eps=1e-05, elementwise_affine=True)
        (self_attn): Attention(
          (qkv): Linear(in_features=384, out_features=1152, bias=False)
          (attn_drop): Dropout(p=0.0, inplace=False)
          (proj): Linear(in_features=384, out_features=384, bias=True)
          (proj_drop): Dropout(p=0.0, inplace=False)
        )
        (norm_q): LayerNorm((384,), eps=1e-05, elementwise_affine=True)
        (norm_v): LayerNorm((384,), eps=1e-05, elementwise_affine=True)
        (attn): CrossAttention(
          (q_map): Linear(in_features=384, out_features=384, bias=False)
          (k_map): Linear(in_features=384, out_features=384, bias=False)
          (v_map): Linear(in_features=384, out_features=384, bias=False)
          (attn_drop): Dropout(p=0.0, inplace=False)
          (proj): Linear(in_features=384, out_features=384, bias=True)
          (proj_drop): Dropout(p=0.0, inplace=False)
        )
        (drop_path): Identity()
        (norm2): LayerNorm((384,), eps=1e-05, elementwise_affine=True)
        (mlp): Mlp(
          (fc1): Linear(in_features=384, out_features=768, bias=True)
          (act): GELU(approximate='none')
          (fc2): Linear(in_features=768, out_features=384, bias=True)
          (drop): Dropout(p=0.0, inplace=False)
        )
      )
    )
  )
  (upsample_net): PointMorphing(
    (dec): GridDecoder(
      (conv1): Conv1d(2, 256, kernel_size=(1,), stride=(1,))
      (conv2): Conv1d(256, 128, kernel_size=(1,), stride=(1,))
      (conv3): Conv1d(128, 64, kernel_size=(1,), stride=(1,))
      (conv4): Conv1d(64, 3, kernel_size=(1,), stride=(1,))
      (th): Tanh()
      (adain1): AdaptiveInstanceNorm1d(256)
      (adain2): AdaptiveInstanceNorm1d(128)
      (adain3): AdaptiveInstanceNorm1d(64)
      (bn1): BatchNorm1d(256, eps=1e-05, momentum=0.1, affine=True, track_running_stats=True)
      (bn2): BatchNorm1d(128, eps=1e-05, momentum=0.1, affine=True, track_running_stats=True)
      (bn3): BatchNorm1d(64, eps=1e-05, momentum=0.1, affine=True, track_running_stats=True)
    )
    (mlp_global): Sequential(
      (0): Linear(in_features=384, out_features=384, bias=True)
      (1): ReLU()
      (2): Linear(in_features=384, out_features=448, bias=True)
    )
    (mlp_local): Sequential(
      (0): Linear(in_features=384, out_features=384, bias=True)
      (1): ReLU()
      (2): Linear(in_features=384, out_features=448, bias=True)
    )
  )
  (increase_dim): Sequential(
    (0): Conv1d(384, 1024, kernel_size=(1,), stride=(1,))
    (1): BatchNorm1d(1024, eps=1e-05, momentum=0.1, affine=True, track_running_stats=True)
    (2): LeakyReLU(negative_slope=0.2)
    (3): Conv1d(1024, 1024, kernel_size=(1,), stride=(1,))
  )
  (reduce_map_global): Linear(in_features=1024, out_features=384, bias=True)
  (reduce_map_local): Linear(in_features=387, out_features=384, bias=True)
  (loss_func): ChamferDistanceL1()
  (penalty_func): expansionPenaltyModule()
)
2026-05-17 16:55:09,772 - AnchorFormer - INFO - Loading weights from ./experiments/AnchorFormer/ours_models/realpc_full_anchorformer/ckpt-best.pth...
2026-05-17 16:55:10,032 - AnchorFormer - INFO - ckpts @ 420 epoch( performance = {'F-Score': 0.5560439118648752, 'CDL1': 17.289693829176834, 'CDL2': 2.600522642501176})
…
